…
        "pred = numpy.argmax(y_pred, axis=1)\n",
        "acc_test = accuracy_score(y_test, pred)\n",
        "\n",
        "print(\"Final accuracy: {}%\".format(round(acc_test*100,2)))\n"
      ],
      "execution_count": 3,
      "outputs": [
        {
          "output_type": "stream",
          "text": [
            "Model: \"sequential_10\"\n",
            "_________________________________________________________________\n",
            "Layer (type)                 Output Shape              Param #   \n",
            "=================================================================\n",
            "conv2d_40 (Conv2D)           (None, 32, 32, 32)        896       \n",
            "_________________________________________________________________\n",
            "conv2d_41 (Conv2D)           (None, 32, 32, 64)        32832     \n",
            "_________________________________________________________________\n",
            "max_pooling2d_10 (MaxPooling (None, 16, 16, 64)        0         \n",
            "_________________________________________________________________\n",
            "dropout_30 (Dropout)         (None, 16, 16, 64)        0         \n",
            "_________________________________________________________________\n",
            "conv2d_42 (Conv2D)           (None, 16, 16, 64)        36928     \n",
            "_________________________________________________________________\n",
            "conv2d_43 (Conv2D)           (None, 14, 14, 128)       73856     \n",
            "_________________________________________________________________\n",
            "dropout_31 (Dropout)         (None, 14, 14, 128)       0         \n",
            "_________________________________________________________________\n",
            "flatten_10 (Flatten)         (None, 25088)             0         \n",
            "_________________________________________________________________\n",
            "dense_20 (Dense)             (None, 500)               12544500  \n",
            "_________________________________________________________________\n",
            "dropout_32 (Dropout)         (None, 500)               0         \n",
            "_________________________________________________________________\n",
            "dense_21 (Dense)             (None, 10)                5010      \n",
            "=================================================================\n",
            "Total params: 12,694,022\n",
            "Trainable params: 12,694,022\n",
            "Non-trainable params: 0\n",
            "_________________________________________________________________\n",
            "None\n",
            "Epoch 1/25\n",
            "225/225 - 18s - loss: 1.6698 - accuracy: 0.3922 - val_loss: 1.2609 - val_accuracy: 0.5482\n",
…
